phase2/saved_model_weights/bert_baseline-emb_length=768-pred_length=24-batch_size=32-epochs=3000-lr=0.005-cut_off=0.3.pt (torch, 74855 bytes, 2 tensors)

layer1.weight f4 [24, 768]
-71.9994 -23.927465 17.767199 52.100914 47.549232 -7.49802 -40.416054 -7.2863064
29.807539 1.1029631 81.632904 4.4605045 2.6378522 -35.46229 22.136982 -52.745388
18.650719 -6.7711177 19.486897 1.2823511 35.728493 -9.052076 18.320986 7.328378
-39.004913 41.02916 46.82151 -21.530794 61.135365 35.506626 -55.835728 47.16143
31.472797 67.2929 -0.9687736 94.8817 63.625942 -38.36565 42.481808 0.48507917
2.212763 -5.9990277 56.503395 -70.37502 9.986297 15.5744915 -26.467405 -19.267115
17.17735 -6.1070685 -62.46709 44.298073 54.48015 -36.8135 1.2416576 13.29815
-38.088917 -8.403835 -1.3298527 2.3684456 -85.4436 -24.053476 36.843784 21.656155
3.7871256 22.503632 -17.543169 14.993684 25.741423 -43.11646 -94.559105 -16.966122
-53.08341 -67.653656 21.705101 24.108013 52.50625 -42.29548 -50.014675 34.658623
76.21927 -86.760025 -12.012501 -24.253035 -33.507286 -14.049347 35.301327 0.05391628
54.508434 34.96306 -78.661896 -4.1829143 -67.44922 6.540242 -43.20081 2.2771637
-7.217081 54.718143 -38.671623 -19.55888 -14.35316 -56.734512 30.502064 -52.581154
41.080673 -26.26975 -33.346912 41.337967 13.919446 -55.949894 -64.326744 -34.16332
-31.580942 -47.611492 40.269066 1.8572453 35.267223 3.873676 26.940285 -73.04196
-57.218655 -7.060476 -14.488317 -37.424953 18.20618 -73.2818 27.448044 71.04588
-39.096687 47.588394 -1.2021253 -0.810981 -34.616615 29.170261 -38.928734 -15.351085
-45.453552 30.06755 -27.371515 49.646935 29.938562 66.474495 44.790546 -26.320166
31.612278 -11.872636 27.222752 -4.52324 11.248993 44.90673 -9.418745 12.317468
-62.81705 60.382423 -70.42413 0.3233603 -41.758183 55.522076 23.680176 -12.170133
33.321106 37.438194 51.603157 73.73473 24.993591 7.367746 -21.883007 -59.650604
-6.2893496 -26.131691 41.80509 69.24056 33.765774 25.912771 -19.174913 27.38397
10.1040945 22.686142 -28.205564 -31.160542 -16.960463 51.444283 72.77585 -6.9985285
-16.988953 -55.05437 39.753296 12.147293 -7.991896 5.3429875 37.491707 -22.49693
74.92269 -57.85494 32.49672 -73.04078 16.388126 -44.84415 14.051047 -18.265123
44.41339 25.827257 -14.041916 -37.68774 29.4006 -39.19058 -20.579668 13.906293
34.675842 14.727565 -72.02986 -18.95145 60.665268 0.20647824 -19.138075 12.501182
-75.351524 -59.564316 5.5382643 -24.770779 49.478806 14.032401 -38.266975 18.341902
24.315731 9.299956 -42.721222 -5.6938305 -5.8572874 -62.50993 -28.262024 60.80751
-35.740036 16.521366 70.183044 26.06274 -35.075893 -9.186291 -13.026624 -30.078562
68.724236 31.809246 10.842263 -65.05435 -63.848858 -63.863544 23.080896 24.82957
-82.74578 -13.46468 17.60854 67.30241 -40.546375 20.518263 -34.884014 81.77615
00000000: b1ff 8fc2 736b bfc1 3923 8e41 5667 5042
00000010: 6a32 3e42 c8ef efc0 0aaa 21c2 6c29 e9c0
00000020: d775 ee41 e52d 8d3f 0c44 a342 74bc 8e40
00000030: 92d2 2840 63d9 0dc2 8a18 b141 47fb 52c2
00000040: ac34 9541 ffac d8c0 2ae5 9b41 1524 a43f
00000050: fae9 0e42 4ed5 10c1 6191 9241 1382 ea40
00000060: 0805 1cc2 dc1d 2442 3a49 3b42 113f acc1
00000070: 9d8a 7442 c906 0e42 c957 5fc2 4ea5 3c42
00000080: 4ac8 fb41 f795 8642 8c01 78bf 6ec3 bd42
00000090: f780 7e42 6d76 19c2 5fed 2942 4c5c f83e
000000a0: e99d 0d40 09f8 bfc0 7a03 6242 03c0 8cc2
000000b0: dfc7 1f41 1e31 7941 3fbd d3c1 0d23 9ac1
000000c0: 366b 8941 1b6d c3c0 4dde 79c2 3a31 3142
000000d0: aceb 5942 0641 13c2 a3ee 9e3f 39c5 5441
000000e0: 0d5b 18c2 1c76 06c1 9d38 aabf 9d94 1740
000000f0: 20e3 aac2 856d c0c1 0960 1342 ce3f ad41
00000100: 4460 7240 7007 b441 6958 8cc1 21e6 6f41
00000110: 6fee cd41 4177 2cc2 431e bdc2 9eba 87c1
00000120: 6955 54c2 ac4e 87c2 0ca4 ad41 36dd c041
00000130: 6606 5242 922e 29c2 070f 48c2 6ea2 0a42
00000140: 4470 9842 2285 adc2 3433 40c1 3706 c2c1
00000150: 7607 06c2 20ca 60c1 8f34 0d42 51d7 5c3d
00000160: a308 5a42 2cda 0b42 e452 9dc2 6fda 85c0
00000170: 00e6 86c2 aa49 d140 a1cd 2cc2 0dbd 1140
00000180: 54f2 e6c0 61df 5a42 beaf 1ac2 9678 9cc1
00000190: 8ba6 65c1 24f0 62c2 3a04 f441 1a53 52c2
000001a0: 9c52 2442 7328 d2c1 3d63 05c2 145a 2542
000001b0: 0db6 5e41 b1cc 5fc2 4ba7 80c2 3da7 08c2
000001c0: c5a5 fcc1 2b72 3ec2 8613 2142 37ba ed3f
000001d0: a311 0d42 4fea 7740 b485 d741 7c15 92c2
000001e0: e7df 64c2 6bef e1c0 25d0 67c1 27b3 15c2
000001f0: 42a6 9141 4890 92c2 9895 db41 7e17 8e42
00000200: 0263 1cc2 845a 3e42 3edf 99bf 739c 4fbf
00000210: 6a77 0ac2 b25c e941 06b7 1bc2 0b9e 75c1
00000220: 70d0 35c2 588a f041 ddf8 dac1 7696 4642
00000230: 2d82 ef41 f1f2 8442 8529 3342 b38f d2c1
00000240: f2e5 fc41 51f6 3dc1 32c8 d941 62be 90c0
00000250: e0fb 3341 7ea0 3342 2eb3 16c1 5914 4541
00000260: a944 7bc2 9a87 7142 28d9 8cc2 7b8f a53e
00000270: 6108 27c2 9b16 5e42 0071 bd41 ddb8 42c1
00000280: d048 0542 b6c0 1542 a269 4e42 2f78 9342
00000290: e0f2 c741 93c4 eb40 6610 afc1 389a 6ec2
000002a0: 5a42 c9c0 b40d d1c1 6a38 2742 2b7b 8a42
000002b0: 2710 0742 5b4d cf41 3966 99c1 5f12 db41
000002c0: 5faa 2141 387d b541 ffa4 e1c1 ca48 f9c1
000002d0: 07af 87c1 f2c6 4d42 3c8d 9142 f2f3 dfc0
000002e0: 60e9 87c1 ad37 5cc2 6003 1f42 505b 4241
000002f0: 9dbd ffc0 c1f9 aa40 82f7 1542 b6f9 b3c1
00000300: 6bd8 9542 756b 67c2 a4fc 0142 e114 92c2
00000310: e21a 8341 6960 33c2 17d1 6041 f91e 92c1
00000320: 50a7 3142 399e ce41 b0ab 60c1 3fc0 16c2
00000330: 6e34 eb41 27c3 1cc2 29a3 a4c1 2d80 5e41
00000340: 10b4 0a42 1ba4 6b41 4a0f 90c2 929c 97c1
00000350: 3ca9 7242 086f 533e c71a 99c1 d704 4841
00000360: fbb3 96c2 dc41 6ec2 7639 b140 8e2a c6c1
00000370: 4cea 4542 b784 6041 6211 19c2 37bc 9241
00000380: 9e86 c241 9fcc 1441 88e2 2ac2 dc33 b6c0
00000390: e66e bbc0 2b0a 7ac2 a018 e2c1 e43a 7342
000003a0: ccf5 0ec2 c22b 8441 b85d 8c42 7e80 d041
000003b0: b74d 0cc2 0cfb 12c1 0d6d 50c1 e5a0 f0c1
000003c0: cf72 8942 5679 fe41 e979 2d41 d41b 82c2
000003d0: 3b65 7fc2 4574 7fc2 ada5 b841 f6a2 c641
000003e0: d77d a5c2 546f 57c1 4ade 8c41 d59a 8642
000003f0: 7d2f 22c2 6725 a441 3b89 0bc2 648d a342

layer1.bias f4 [24]
-46.713593 -44.34804 -49.63443 -34.49228 -42.027782 -42.978844 -34.511684 -46.335125
-50.243744 -42.457203 -44.4614 -61.753468 -44.080902 -45.72679 -49.33854 -62.04808
-38.4059 -41.928196 -52.291603 -34.492523 -37.135822 -57.35056 -39.70362 -55.472107
00000000: b8da 3ac2 6564 31c2 a889 46c2 18f8 09c2
00000010: 731c 28c2 56ea 2bc2 f70b 0ac2 2b57 39c2
00000020: 98f9 48c2 2dd4 29c2 79d8 31c2 8d03 77c2
00000030: d852 30c2 3ce8 36c2 aa5a 45c2 3c31 78c2
00000040: a49f 19c2 79b6 27c2 9a2a 51c2 58f8 09c2
00000050: 158b 14c2 f966 65c2 82d0 1ec2 70e3 5dc2
